model.pth (torch, 17103 bytes, 4 tensors)

linear1.weight f4 [256, 11]
0	0x3ed816bf	0.42204854
1	0xbead8a51	-0.3389459
2	0x3e8f9a83	0.2804757
3	0xbe7dad27	-0.24773084
4	0xbf332ac9	-0.6998716
5	0xbc97ccca	-0.018530268
6	0xbefa00e7	-0.48828813
7	0xbf5ae66e	-0.8550786
8	0xbf02374d	-0.5086563
9	0xbea4a974	-0.32160532
10	0xbebeb264	-0.37245476
11	0xbe829575	-0.25504652
12	0xbd41f494	-0.04735239
13	0xbe8f7d97	-0.28025505
14	0x3e32b0ca	0.17450252
15	0x3c823a14	0.015896834
16	0x3df218ae	0.118211135
17	0xbe97f9e5	-0.29682842
18	0x3ca05ca5	0.019575426
19	0xbe94c688	-0.29057717
20	0xbeaa9d92	-0.33323342
21	0xbebc321b	-0.36756977
22	0xbe8ff2fa	-0.28115064
23	0xbd0263d8	-0.0318335
24	0xbe8b1057	-0.27160904
25	0x3e38711b	0.18011896
26	0x3e246b77	0.1605662
27	0x3dcbcd74	0.099512964
28	0x3d9ca9e4	0.076495916
29	0x3d392b27	0.04520717
30	0xbdf9d87c	-0.12199494
31	0xbd842484	-0.06452277
32	0xbd870b49	-0.06593949
33	0xc028c878	-2.6372356
34	0xc06cc05f	-3.6992414
35	0xbfffaf2c	-1.9975333
36	0x3eea95fd	0.45817557
37	0xbffe55c6	-1.9869926
38	0x3f649a1e	0.89297664
39	0x3ff2becb	1.8964475
40	0xbfddb7c7	-1.7321709
41	0xbfba73d2	-1.4566596
42	0x3f9a6d53	1.2064613
43	0x3eacc199	0.33741453
44	0x3f2ee415	0.68316776
45	0x3f32ebd7	0.69891113
46	0x3c0abd7d	0.008468029
47	0xbf4cfa74	-0.8006966
48	0xbfe86e02	-1.8158572
49	0xbfad8b48	-1.355813
50	0xbf9512a2	-1.1646311
51	0xbd5f49b1	-0.054513637
52	0xbf0e57df	-0.5560283
53	0x3f1e1427	0.617495
54	0x3eb7f809	0.35931423
55	0xbe4efc0b	-0.20213334
56	0x3c6d94e0	0.014500827
57	0x3ea7f8f5	0.32807127
58	0xbe2ac955	-0.16678365
59	0xbe40e9a3	-0.18839125
60	0x3da23729	0.07920677
61	0xbebedefa	-0.37279493
62	0xbe49bb80	-0.19700432
63	0xbf0d0d5e	-0.5509852
64	0xbece6ed4	-0.4031893
65	0xbe7b8d2a	-0.24565569
66	0x401e4ba3	2.4733665
67	0xbfaf9ed3	-1.3720344
68	0xbfd7a67b	-1.6847681
69	0xc06679c6	-3.6011825
70	0xbf751095	-0.9572843
71	0x3fa23795	1.2673212
72	0xbf9999fe	-1.200012
73	0xbfa9a75e	-1.3254201
74	0xbf0cde7b	-0.5502698
75	0xc01a0227	-2.4063814
76	0x3f41a090	0.75635624
77	0xbe101b4c	-0.14072913
78	0xbd2bb440	-0.041919947
79	0xbe7482ae	-0.23877975
80	0x3e64ff65	0.2236305
81	0xbe76ad41	-0.24089529
82	0xbb8010c6	-0.0039082495
83	0x3ac8c000	0.001531601
84	0xbe75881b	-0.23977701
85	0xbe85fbb3	-0.26168594
86	0x3c346bdb	0.011012043
87	0xbe633b0a	-0.2219049
88	0x3fa3710c	1.2768874
89	0x3f87772f	1.0583247
90	0xbff89243	-1.9419636
91	0xbfbe6264	-1.4873776
92	0xc0265433	-2.598889
93	0x3f6a72df	0.9158153
94	0x3f3ccebe	0.73752964
95	0x3f07d617	0.5306105
96	0xbf104e26	-0.56369245
97	0xbedbc1a7	-0.42921183
98	0xbf20af34	-0.6276734
99	0x3f165f41	0.58739096
100	0x3f6f4154	0.9345906
101	0xbfb5056c	-1.414228
102	0xbe510413	-0.2041171
103	0xbf4cb207	-0.7995915
104	0xbe33775b	-0.17525999
105	0xbfb9049a	-1.4454529
106	0xbeba60a4	-0.36401856
107	0xbf6fd288	-0.9368062
108	0xbf4a3beb	-0.7899768
109	0xbe879895	-0.26483598
110	0xbe5e50e0	-0.21710539
111	0xbda7601a	-0.08172627
112	0xbe8acc93	-0.27109203
113	0xbd895416	-0.06705491
114	0xbe5dc212	-0.21656063
115	0xbe8c212d	-0.2736906
116	0xbdb9f745	-0.09080366
117	0xbc9c9d4c	-0.019117974
118	0xbe631be2	-0.22178605
119	0x3d14c9a0	0.036325097
120	0x3cb36227	0.021897389
121	0x3f06c3f1	0.5264273
122	0x3e910c6e	0.28329796
123	0x3e7ce73c	0.24697584
124	0xbef98f81	-0.48742297
125	0xbe9d9578	-0.30778098
126	0xbf774f6f	-0.9660558
127	0xbf69d5e1	-0.9134198
128	0xbe7d8f7f	-0.2476177
129	0xbf0234d7	-0.5086188
130	0xbdb080cb	-0.08618315
131	0xbe72dbcd	-0.2371666
132	0xbdb11f39	-0.086485334
133	0xbec74eaf	-0.38927218
134	0x3ed79dfa	0.42112714
135	0xbe8367a4	-0.2566501
136	0xbf450191	-0.76955515
137	0xbf376e3c	-0.7165258
138	0x3e13f988	0.14450657
139	0xbe69ac54	-0.22819644
140	0xbf372b6b	-0.71550626
141	0xbd4796a6	-0.048727654
142	0xbf69bf17	-0.91307205
143	0x3d829df4	0.063777834
144	0x3e128518	0.14308584
145	0xbe99fd80	-0.30076218
146	0xbd85f4ca	-0.065408304
147	0xbde5ea12	-0.11226286
148	0xbe0990a1	-0.13434078
149	0xbcd5e599	-0.026110457
150	0xbdb3da38	-0.08781856
151	0xbe8dc53b	-0.27689537
152	0xbe0fa8fa	-0.14029303
153	0xbdda6845	-0.10664419
154	0xc01491db	-2.3214023
155	0xc036aa15	-2.854131
156	0x3fd285be	1.6447065
157	0xbcf8d8fa	-0.0303769
158	0xc02ae6cc	-2.6703367
159	0x40523cbb	3.2849567
160	0xbfcaa90a	-1.5832837
161	0x3e90e67a	0.2830084
162	0x3f283e43	0.65720004
163	0xc0108208	-2.2579365
164	0xbf8e364b	-1.1110319
165	0x3f2863d6	0.6577734
166	0x3f1be218	0.60891867
167	0xbf914003	-1.134766
168	0xbf768d0a	-0.9630896
169	0xc01be71a	-2.4359803
170	0xc0002da8	-2.0027866
171	0xbf816347	-1.0108422
172	0xbfbc4eb6	-1.4711521
173	0xbf6caf1e	-0.9245471
174	0x3cee1763	0.029063886
175	0xbf91e681	-1.1398469
176	0x3f679e34	0.90475774
177	0xbf3801e0	-0.7187786
178	0xbf1589a8	-0.5841317
179	0xbfa633ce	-1.298456
180	0xbf77a369	-0.9673372
181	0xbe995db5	-0.29954305
182	0xbf92b33d	-1.1460949
183	0xbe963dde	-0.29344076
184	0xbf6b84a8	-0.9199929
185	0xbebad89a	-0.3649338
186	0xbf74c927	-0.95619434
187	0xbb88f580	-0.0041796565
188	0xbc787ae0	-0.015166014
189	0xbe0da21a	-0.13831368
190	0xbe3325be	-0.17494866
191	0xbe911e10	-0.28343248
192	0xbe87f896	-0.26556844
193	0x3d871e25	0.065975465
194	0xbe8e0261	-0.2773619
195	0xbd63153c	-0.055440173
196	0x3c6b18a0	0.014349133
197	0x3e02641f	0.12733506
198	0xbd9a58c7	-0.07536464
199	0xbd006e11	-0.031354968
200	0x3f87ddd2	1.0614569
201	0x3ff96dd1	1.9486638
202	0xc03f67e9	-2.9907172
203	0xc02f6a0a	-2.740847
204	0x4025ebaf	2.59251
205	0x3f95d086	1.1704261
206	0xbcd609a0	-0.026127636
207	0x3f027a7f	0.50968164
208	0xbfdc31eb	-1.7202734
209	0x407073d2	3.757069
210	0x3f15067c	0.5821302
211	0xbedf6e69	-0.43638924
212	0xbf94056c	-1.1564155
213	0x3eed37cc	0.46331632
214	0xc0368e4f	-2.8524358
215	0x3ede626d	0.43434468
216	0xbde959a0	-0.11394048
217	0xbf55e756	-0.83556116
218	0x3e661130	0.22467494
219	0x3e030d51	0.12798049
220	0xbeecb7fe	-0.46234125
221	0x3e5e089d	0.21682973
222	0xbeccd94a	-0.40009528
223	0xbbce03ca	-0.006287073
224	0xbe8c3658	-0.2738521
225	0x3db14e61	0.08657528
226	0xbeb6ae0a	-0.35679656
227	0xbec523c0	-0.38503838
228	0x3cd9223b	0.02650558
229	0x3cc5db86	0.024152528
230	0xbefb4a13	-0.49079952
231	0xbccdf500	-0.02514124
232	0xbc1d69c0	-0.009607732
233	0xbe851bb0	-0.25997686
234	0xbdb218f9	-0.086961694
235	0x3c9e1caa	0.019300777
236	0x3d5d27dd	0.053993095
237	0xbe96b1ce	-0.2943253
238	0x3e123c7b	0.14280884
239	0xbe54023c	-0.20703977
240	0xbe94f892	-0.29095894
241	0x3dcf09fe	0.10109328
242	0x3f52f2a0	0.82401466
243	0x3fc2810b	1.5195631
244	0x3e7dc777	0.24783121
245	0x3c351e0c	0.011054527
246	0xbf78ab9b	-0.9713685
247	0xbf0ebc8f	-0.5575647
248	0xbe0c3723	-0.13692908
249	0x3f03f8aa	0.51551306
250	0x3e45c8b7	0.19314848
251	0x3ff2828d	1.8946091
252	0x3f78ab3b	0.97136277
253	0xbe1cf321	-0.15327121
254	0xbe80037a	-0.25002652
255	0xbdd2ed2e	-0.10299145

linear1.bias f4 [256]
0	0xbe693ab5	-0.22776301
1	0xbe6394ed	-0.2222478
2	0xbecec56c	-0.40384996
3	0x3eae7d75	0.3408009
4	0x401caf69	2.4482062
5	0xbe2e1ede	-0.17003962
6	0xbd81f54f	-0.06345617
7	0xbe96cf85	-0.294552
8	0xbf9710ee	-1.1802042
9	0xbf94515d	-1.158733
10	0xbe114c30	-0.1418922
11	0xbf29f68e	-0.6639184
12	0xbf13d655	-0.5774892
13	0xbd9a678d	-0.07539282
14	0xbf3d0348	-0.7383313
15	0x3fe080f4	1.7539353
16	0xbf5dbb7e	-0.86614215
17	0xbe68f380	-0.22749138
18	0xbfc0ca9a	-1.5061829
19	0xbf411fcd	-0.7543915
20	0xbf6401a1	-0.89064986
21	0xbee69952	-0.4503885
22	0x408d06d4	4.4070835
23	0xbe2ed9f6	-0.17075333
24	0xbd8e8484	-0.06958869
25	0xbf89a360	-1.0752983
26	0xbe727fa8	-0.2368151
27	0xbde71998	-0.112841785
28	0xbf044054	-0.51660657
29	0xbf830d4b	-1.0238432
30	0x3eebf16f	0.46082637
31	0x3db27259	0.08713216
32	0xbe4b9792	-0.19882038
33	0xbf38a0c5	-0.72120315
34	0xbed12407	-0.408478
35	0xbf2efcb3	-0.6835434
36	0xc00b0f35	-2.1728032
37	0x4075a960	3.8384628
38	0xbee9829b	-0.45607457
39	0xbfaba0f5	-1.3408495
40	0xbe153902	-0.14572528
41	0xbf06408b	-0.52442235
42	0xbcbb4c28	-0.022863463
43	0xbfde37ae	-1.7360742
44	0xc04ffc63	-3.2497795
45	0xbe946029	-0.28979614
46	0xbeec972e	-0.4620909
47	0xbea8b290	-0.32948732
48	0xbf44063e	-0.76572025
49	0xbede9e27	-0.43480036
50	0xbed6aa4f	-0.4192681
51	0xbe727291	-0.23676516
52	0xbefd10b4	-0.49426806
53	0xbf46775b	-0.7752587
54	0x407a5fa8	3.9120884
55	0xbf38fa93	-0.72257346
56	0x4065853f	3.5862577
57	0xbef54fd4	-0.47912467
58	0xbf22ae39	-0.6354709
59	0xbf63d0d1	-0.88990504
60	0x3f60cb65	0.87810355
61	0x406a0ff3	3.6572235
62	0xbfabfaf2	-1.3435957
63	0x404b6e44	3.178605
64	0x40164003	2.347657
65	0xbfc7c8ae	-1.5608118
66	0xbef5a12b	-0.47974524
67	0xbee35faf	-0.44408938
68	0xbe8a83f3	-0.27053794
69	0xbf7faf69	-0.9987703
70	0xbf766830	-0.9625273
71	0xbef617bf	-0.48064992
72	0xc005eca8	-2.0925694
73	0x4011bb15	2.2770436
74	0xbed208bf	-0.41022298
75	0xbfaede8a	-1.3661664
76	0xbf41803a	-0.75586283
77	0xbe262c94	-0.16227943
78	0xbf8fc5cc	-1.1232238
79	0x407af5b1	3.9212458
80	0xbebdb7d9	-0.37054327
81	0xbfed96bc	-1.8561625
82	0xbf42e857	-0.7613577
83	0x4062e50d	3.5452302
84	0xbeae0852	-0.33990723
85	0xbf6c8ab3	-0.9239914
86	0xbfa613f9	-1.2974845
87	0xbed61d67	-0.41819307
88	0xbf2968f3	-0.66175765
89	0xbf511f6d	-0.81688577
90	0xbf868d03	-1.0511783
91	0xbeb68810	-0.35650682
92	0xbe1edb37	-0.15513311
93	0xc005265d	-2.0804665
94	0xbf1a7b3d	-0.60344297
95	0xbf1ccae4	-0.61247087
96	0xbfb7a48f	-1.4347094
97	0xbe9334e0	-0.28751278
98	0xbf009ede	-0.5024241
99	0xbea1ae25	-0.31578174
100	0xbf6dc220	-0.92874336
101	0x3fe12eb9	1.7592384
102	0xbebc95ce	-0.36833042
103	0xc07326cc	-3.799243
104	0xbe55fffd	-0.20898433
105	0xbf015211	-0.5051585
106	0xbf35f738	-0.7108035
107	0xbf1cc53d	-0.6123846
108	0xbf00afbd	-0.50268155
109	0xbe1b3f6b	-0.15160911
110	0xbe561a94	-0.20908576
111	0xbee97220	-0.45594883
112	0xbfdb2048	-1.7119226
113	0xbf44acb2	-0.7682601
114	0xc0246858	-2.5688686
115	0xbe91527c	-0.28383243
116	0xbf107ee0	-0.56443596
117	0xbf4145b1	-0.75496966
118	0xbe579bac	-0.21055478
119	0xbea97af2	-0.33101612
120	0xbf220b89	-0.6329885
121	0xbf07efca	-0.53100264
122	0xbf28de90	-0.65964603
123	0xbea3e8f6	-0.32013673
124	0xbf544c1d	-0.8292864
125	0xbea9f934	-0.3319794
126	0x40462588	3.0960407
127	0xbebaa685	-0.3645517
128	0x4023e2bc	2.5607138
129	0xbfb07dcb	-1.3788389
130	0x3ea52713	0.32256374
131	0xbeb89c34	-0.36056674
132	0xbef2a03b	-0.4738787
133	0xbf12fa8d	-0.5741356
134	0x401d3314	2.4562426
135	0xbf32b0cf	-0.6980104
136	0xbdf2f93f	-0.11863946
137	0xbf2b7ef5	-0.66990596
138	0xbf7e09ab	-0.992335
139	0xbe6473d8	-0.22309816
140	0x4079bdde	3.9022136
141	0xbf3e237e	-0.74272907
142	0xbeb5928e	-0.35463375
143	0xbee34458	-0.4438808
144	0x404f78b1	3.2417414
145	0xbdae31bf	-0.08505582
146	0xbed09e00	-0.40745544
147	0xbee62d9e	-0.44956678
148	0xbf542db9	-0.8288227
149	0xbf37e315	-0.71830875
150	0xbe80f5c6	-0.2518751
151	0xbf29e44a	-0.66363966
152	0xbf352d92	-0.7077266
153	0xbedbdced	-0.4294199
154	0xbf1c8985	-0.6114734
155	0xbf1a2450	-0.6021166
156	0xbe8290a8	-0.2550099
157	0xbff3c50d	-1.904451
158	0xbea2d3c7	-0.31802198
159	0xbf21dd8d	-0.63228685
160	0xbfc37839	-1.5271064
161	0xbe9c2cb2	-0.3050285
162	0xbe33971d	-0.17538114
163	0xbf945a12	-1.1589987
164	0xbdb3ae82	-0.08773519
165	0x3fd61475	1.6724993
166	0xbf05c092	-0.52246964
167	0xbfa6d2d2	-1.3033087
168	0xbf64b1b3	-0.8933365
169	0xbefde127	-0.4958584
170	0xbf101e17	-0.56295913
171	0x3e8c0264	0.27345574
172	0xbe3c1500	-0.18367386
173	0xbe22f5b9	-0.15914048
174	0xbe9cb09c	-0.30603492
175	0xbeebdb5d	-0.46065798
176	0xbed784f8	-0.42093635
177	0x408aa781	4.3329473
178	0xbfda4c9e	-1.7054632
179	0xbe2ffa0c	-0.17185229
180	0xbeeed08c	-0.46643484
181	0xbe1c2e42	-0.15252021
182	0xbec9c8c4	-0.39410985
183	0xbf1cc18d	-0.61232835
184	0xbf70a0fe	-0.93995655
185	0xbecd6b57	-0.40120956
186	0xbea5b127	-0.3236172
187	0xbeb7f1a5	-0.35926548
188	0xbea80bb2	-0.32821423
189	0xbf3dd7ae	-0.74157226
190	0xbef572be	-0.47939104
191	0xbec5eb78	-0.3865621
192	0xbe95ac42	-0.29232985
193	0xbef2d39b	-0.47427067
194	0xbf612e96	-0.8796171
195	0xbe11876c	-0.14211816
196	0xbeec63c9	-0.4616988
197	0xbf6ca792	-0.9244319
198	0xbf6feafc	-0.9371793
199	0x40709428	3.7590427
200	0xbebd3e87	-0.36961767
201	0xbe9f52b9	-0.311178
202	0xbedb7605	-0.4286348
203	0xc029a475	-2.6506627
204	0xbf6543fe	-0.8955687
205	0xbef704bf	-0.48245808
206	0xbee58678	-0.44829154
207	0xbf337dc0	-0.70113754
208	0xbf8a88b7	-1.0822972
209	0xbf8e5f90	-1.1122913
210	0x3fafa5e4	1.3722501
211	0xbc01506f	-0.007892712
212	0xbeb14c55	-0.3462855
213	0xbef9656e	-0.48710197
214	0xbda782cb	-0.08179244
215	0xbf3bdb0c	-0.73381114
216	0xbe93aa09	-0.28840664
217	0xbf07264d	-0.5279282
218	0xbef44c09	-0.4771426
219	0xbf139eaf	-0.57664007
220	0xc0427f05	-3.0390027
221	0xbfc8bcf8	-1.5682669
222	0xbf205ef2	-0.62644875
223	0xbeb6d093	-0.35706005
224	0xbefefac1	-0.49800685
225	0xbe2c4cb5	-0.16826136
226	0xbec460a2	-0.38354975
227	0xbfc819a8	-1.563283
228	0xbf2964ae	-0.6616925
229	0xbf6b1513	-0.9182903
230	0xbf03bb25	-0.51457435
231	0xbfee2ee1	-1.8608056
232	0xbfabb297	-1.3413876
233	0xbee1de49	-0.44114903
234	0xbf32ed10	-0.6989298
235	0xbf3b1a96	-0.7308744
236	0x3ea5dd84	0.32395566
237	0xbfaada69	-1.3347903
238	0xbd5280ba	-0.051392294
239	0xbebbbd07	-0.36667654
240	0xbeda8f24	-0.42687333
241	0x3ef4d291	0.478169
242	0xbe3d909f	-0.185122
243	0xbf2641a6	-0.6494392
244	0xbf3bd9c4	-0.7337916
245	0xbf151acb	-0.5824401
246	0xbf4d639b	-0.8023011
247	0xbef88c53	-0.4854456
248	0x3f2b6a27	0.6695885
249	0xbeed1728	-0.4630673
250	0xbf412e91	-0.7546168
251	0xbf1d1dbb	-0.6137349
252	0xbf6dc98b	-0.92885655
253	0x4062a4c5	3.5413067
254	0xbe01726b	-0.12641303
255	0xbf0377e9	-0.51354843

linear2.weight f4 [3, 256]
0	0x3c2607fe	0.010133741
1	0xbcb42ab1	-0.021993013
2	0x3adfde80	0.001707986
3	0xc020fac6	-2.515306
4	0xbf1fe62a	-0.6246058
5	0xbe19e53e	-0.15028855
6	0x3f5a195d	0.8519495
7	0xbd19ba9e	-0.037531488
8	0x3ecf23e2	0.40457064
9	0x3e162068	0.146608
10	0xbd272c84	-0.040813938
11	0xbeb38411	-0.35061696
12	0x3e0321ad	0.12805815
13	0xbc5396a8	-0.012914337
14	0xbe402fbc	-0.18768209
15	0xbeda03e4	-0.42581093
16	0xbdc3a029	-0.095520325
17	0x3dc507ca	0.09620626
18	0x40174c69	2.3640387
19	0xbf95350d	-1.1656815
20	0x3dd1c259	0.10242147
21	0xbd9cd023	-0.076568864
22	0xbfb58cba	-1.4183571
23	0xbcd0c9a7	-0.02548678
24	0xbdb7bac1	-0.08971167
25	0xbee30001	-0.4433594
26	0xbdf2f6d3	-0.11863484
27	0xbe100e76	-0.14068016
28	0xbcde6d1c	-0.027151637
29	0xbd21213b	-0.03933833
30	0x3d87a34a	0.06622942
31	0x3d1ebe24	0.03875555
32	0xbe12f53f	-0.14351366
33	0xbecfbbf7	-0.40573093
34	0xbdfc6aea	-0.1232508
35	0x3dde6bd7	0.108604126
36	0xbe30bf05	-0.17260368
37	0xbfadd7f4	-1.3581529
38	0x3d69b1c0	0.05705428
39	0xbf1aac87	-0.60419506
40	0xbaaacb6d	-0.0013030596
41	0x3fe21609	1.7662975
42	0xbdff2f8d	-0.124602415
43	0xbf947d45	-1.1600729
44	0x3e6b15df	0.22957562
45	0xbe3c6ed1	-0.18401648
46	0xbd2fe307	-0.04294112
47	0xbd918c4b	-0.07106837
48	0xbee052dc	-0.43813217
49	0x3e975582	0.29557425
50	0x3e8451a2	0.2584353
51	0xbdbc285d	-0.09187386
52	0x3d10c932	0.035348125
53	0x3f6eedf1	0.9333182
54	0xbf95b52d	-1.1695915
55	0x3d69d49f	0.057087537
56	0xbfbd508a	-1.4790204
57	0xbe06370a	-0.13106933
58	0xbe7f4d70	-0.24931884
59	0xbe9c902f	-0.30578753
60	0x3f124902	0.5714265
61	0xbfaa76e0	-1.3317528
62	0xbec83e73	-0.39110145
63	0xbf5401b4	-0.828151
64	0xbebe7858	-0.3720119
65	0x3f63ace2	0.88935673
66	0x3d6c2964	0.05765666
67	0xbd02fdf2	-0.031980462
68	0x3d32ce56	0.04365381
69	0x3ef71514	0.4825827
70	0x3ffa9d87	1.9579324
71	0xbea7f9dd	-0.32807818
72	0xbdd0f873	-0.10203638
73	0x402ebfa9	2.730448
74	0x3afc9a75	0.0019272106
75	0x3fe010a2	1.7505076
76	0x3d6ada0d	0.057336856
77	0xbe205207	-0.15656291
78	0xbe72d25d	-0.2371306
79	0xbfc1a90c	-1.5129714
80	0x3eabfd54	0.33591712
81	0x3fa5ae63	1.2943844
82	0xbd48190b	-0.048852008
83	0xbfb49e1b	-1.411075
84	0xbd237e7c	-0.039915547
85	0xbdf6334f	-0.12021505
86	0x3eab4cf1	0.3345714
87	0x3d34fbfe	0.04418563
88	0x3d8e7959	0.06956739
89	0xbece1dc3	-0.4025708
90	0xbd0ef7a7	-0.03490415
91	0x3c51e730	0.012811467
92	0x3f3ab52d	0.729327
93	0xbf077797	-0.52916855
94	0xbca7acb9	-0.020468103
95	0xbe2b22cc	-0.16712493
96	0x3f095f08	0.5366063
97	0xbdb12d98	-0.086512744
98	0xbe4268a4	-0.1898523
99	0xbd0be2ca	-0.03415183
100	0x3d3753fc	0.044757828
101	0xbec31762	-0.38103777
102	0xbe41da2f	-0.18930887
103	0x3da52f6f	0.08065688
104	0x3e2184be	0.15773293
105	0x3df3d9c6	0.11906771
106	0x3c9e7521	0.01934296
107	0xbf1c0b63	-0.60954875
108	0xbd51ef1b	-0.05125342
109	0xbdeff77a	-0.11717124
110	0x3e200775	0.15627845
111	0xbedc934e	-0.43081135
112	0xbe6ada59	-0.22934856
113	0xbf0e0aae	-0.55485046
114	0xbf072342	-0.52788174
115	0xbd10ad92	-0.03532178
116	0xbe302224	-0.17200524
117	0xbe73e5e2	-0.23818162
118	0xbccc1ecb	-0.024917027
119	0x3d8a0c5b	0.06740638
120	0x3e8f4bdc	0.27987564
121	0x3fecfff2	1.8515608
122	0xbdfd282d	-0.123611785
123	0xbe0e7e11	-0.13915278
124	0x3e819b17	0.25313637
125	0xbcd26e7f	-0.025687454
126	0xbf6a9043	-0.91626376
127	0x3e051b53	0.12998705
128	0xbece5636	-0.4030015
129	0x3f7dea85	0.99185973
130	0xbf024bf0	-0.5089712
131	0xbe8b49fa	-0.27204877
132	0xbe57c974	-0.21072942
133	0x3ecb44f1	0.39701036
134	0xbf0357cc	-0.5130584
135	0xbd84cd51	-0.064844735
136	0xbdb189dd	-0.086688735
137	0xbebd5fd4	-0.36987174
138	0xbf2bc1e6	-0.6709274
139	0x3e6c6867	0.23086701
140	0xbf963fb1	-1.1738187
141	0xbdf814b1	-0.121133216
142	0xbe9961c7	-0.2995741
143	0x3e452129	0.19250931
144	0xbf4fa109	-0.81105095
145	0xbd4c34ea	-0.04985515
146	0x3fc53c7b	1.5409082
147	0x3ce92617	0.028460545
148	0xbebf7d03	-0.37400064
149	0xbf04982f	-0.51794714
150	0xbe1f896f	-0.1557977
151	0x3db65c1e	0.08904289
152	0xbe5e0917	-0.21683155
153	0xbdf36602	-0.11884691
154	0xbe35d953	-0.17758684
155	0xbd6b7a35	-0.057489593
156	0xbdecd314	-0.115636975
157	0x3fb5e6b7	1.4211034
158	0xbe9d5f51	-0.30736783
159	0x3d774be7	0.06037512
160	0x3fe54bd0	1.7913761
161	0xbcc43fd4	-0.023956217
162	0x3e43e0bf	0.19128703
163	0xbdd6c610	-0.10486996
164	0xbe15fde0	-0.14647627
165	0xbed6ecb5	-0.41977468
166	0x3cfdc8c8	0.030979529
167	0x3fcecd4c	1.6156402
168	0xbe73a301	-0.2379265
169	0xbcf1ad71	-0.029501649
170	0x3c7660ee	0.015037758
171	0xbf01719f	-0.50564
172	0x3e1be241	0.15223028
173	0xbb502d38	-0.0031765234
174	0x3d20c4c0	0.039250135
175	0xbf5a682c	-0.85315204
176	0xbebb31d4	-0.36561453
177	0xbfb7ca50	-1.4358616
178	0xbed31f0f	-0.41234633
179	0xbbba2c59	-0.005681556
180	0x3ce0a809	0.027423875
181	0xbc4c8528	-0.012482919
182	0xbe52180e	-0.20516989
183	0x3d8b7659	0.068096824
184	0xbe2ec052	-0.17065552
185	0xbc8fe718	-0.017566249
186	0x3d97856d	0.07398496
187	0xbd16d98a	-0.036828555
188	0x3affee07	0.0019525894
189	0xbeb8fa41	-0.3612843
190	0xbd54a9ee	-0.05191987
191	0xbb6270a0	-0.0034551993
192	0xbdecbf0c	-0.11559877
193	0xbe2c7cc9	-0.16844477
194	0xbdbd1848	-0.09233147
195	0x3c8c5338	0.017129526
196	0xbdd09558	-0.10184735
197	0xbe3d4807	-0.18484508
198	0x3de3434a	0.11096819
199	0xbf7d3d6e	-0.9892186
200	0xbe17cf2b	-0.14825122
201	0x3ed4a871	0.4153476
202	0xbcab4424	-0.020906515
203	0x3dc03e79	0.09386916
204	0x3e97c968	0.29645848
205	0xbe25ed02	-0.16203693
206	0xbeb9ad0b	-0.36264834
207	0x3d4a9fcd	0.049468804
208	0x3fadb228	1.3569994
209	0xbd7d68a4	-0.06186737
210	0xbeaf33cc	-0.34219205
211	0xbdf0fb8d	-0.117667295
212	0x3bb690fa	0.005571482
213	0xbd18ebda	-0.0373343
214	0x3e71707e	0.23578069
215	0xbc538a6d	-0.012911421
216	0xbd3037ec	-0.04302208
217	0xbe11df43	-0.14245324
218	0x3dabb873	0.0838479
219	0xbdef1e8e	-0.1167575
220	0x3fc1dfe6	1.5146453
221	0x3e49fac7	0.1972457
222	0x3efb5cdd	0.49094287
223	0x3d04fe88	0.032469302
224	0x3d4c1e94	0.04983385
225	0xbe1c066d	-0.15236826
226	0x3f3bc7a6	0.73351514
227	0xbe4373ee	-0.19087192
228	0x3cf26969	0.02959128
229	0x3d989183	0.07449629
230	0x3ec31bc3	0.38107118
231	0xbe86510a	-0.26233703
232	0xbf2f87ce	-0.68566597
233	0x3d4ab152	0.049485512
234	0x3e0a9490	0.13533235
235	0xbd474d54	-0.04865773
236	0xbe97fd49	-0.2968543
237	0x401313f5	2.298093
238	0xbf0a0230	-0.5390959
239	0xbdfc310c	-0.123140424
240	0xbd2efb49	-0.042720113
241	0xbf08df27	-0.53465503
242	0x3d902f5c	0.07040283
243	0x3df07009	0.11740119
244	0xbd258fc3	-0.040420305
245	0x3ecaaa46	0.39583033
246	0x3e40b34a	0.18818393
247	0xbca86363	-0.020555204
248	0xbe04e71d	-0.12978788
249	0xbd9f0c99	-0.07766075
250	0x3e942d3e	0.28940767
251	0x3ec1e697	0.3787124
252	0xbd5f0103	-0.054444324
253	0xbfa97129	-1.3237659
254	0x3fccf992	1.6013663
255	0x3d28da00	0.041223526

linear2.bias f4 [3]
0	0xbfe483e7	-1.7852753
1	0xc007bf2a	-2.1210427
2	0xc022a3b5	-2.541242
